edging-robot-v4/tflite-model/tflite_learn_4.tflite (tflite, 46456 bytes, 3 tensors)

sequential/y_pred/MatMul i1 [2, 18432] scale=0.00086902373 zero_point=0
000000 10 f6 13 15 14 f8 fe f2 05 07 f5 f6 f4 16 08 12
       0.01390438 -0.008690237 0.016511451 0.018249499 0.017380474 -0.00695219 -0.0017380475 -0.012166332 0.0043451185 0.006083166 -0.009559261 -0.008690237 -0.010428285 0.019118521 0.00695219 0.015642427
000010 1c 12 2f fb 0f 0a 06 11 fc 0a 1b 07 01 08 ee 16
       0.024332665 0.015642427 0.040844116 -0.0043451185 0.013035356 0.008690237 0.0052141426 0.014773403 -0.003476095 0.008690237 0.02346364 0.006083166 0.00086902373 0.00695219 -0.015642427 0.019118521
000020 ff 1a 11 01 ef f4 f4 12 09 0c f9 0a 14 0d 0a fd
       -0.00086902373 0.022594618 0.014773403 0.00086902373 -0.014773403 -0.010428285 -0.010428285 0.015642427 0.007821213 0.010428285 -0.006083166 0.008690237 0.017380474 0.011297309 0.008690237 -0.0026070713
000030 07 f8 fd f7 18 f0 17 0b f5 f4 15 08 f3 01 f8 10
       0.006083166 -0.00695219 -0.0026070713 -0.007821213 0.02085657 -0.01390438 0.019987546 0.009559261 -0.009559261 -0.010428285 0.018249499 0.00695219 -0.011297309 0.00086902373 -0.00695219 0.01390438
000040 03 fe 19 16 f2 15 ed 10 08 f7 09 f1 23 05 07 10
       0.0026070713 -0.0017380475 0.021725593 0.019118521 -0.012166332 0.018249499 -0.016511451 0.01390438 0.00695219 -0.007821213 0.007821213 -0.013035356 0.030415831 0.0043451185 0.006083166 0.01390438
000050 08 09 f8 06 0b 06 06 15 15 06 08 06 10 fc f0 08
       0.00695219 0.007821213 -0.00695219 0.0052141426 0.009559261 0.0052141426 0.0052141426 0.018249499 0.018249499 0.0052141426 0.00695219 0.0052141426 0.01390438 -0.003476095 -0.01390438 0.00695219
000060 0d 15 14 04 04 0b eb 04 07 fc ff 06 0a f8 10 f7
       0.011297309 0.018249499 0.017380474 0.003476095 0.003476095 0.009559261 -0.018249499 0.003476095 0.006083166 -0.003476095 -0.00086902373 0.0052141426 0.008690237 -0.00695219 0.01390438 -0.007821213
000070 f4 17 02 17 12 0d f5 f4 04 fc 0b 16 14 fa 12 f4
       -0.010428285 0.019987546 0.0017380475 0.019987546 0.015642427 0.011297309 -0.009559261 -0.010428285 0.003476095 -0.003476095 0.009559261 0.019118521 0.017380474 -0.0052141426 0.015642427 -0.010428285
000080 0e 13 f9 17 f1 09 f7 fd f2 01 0f 01 2e 13 03 08
       0.012166332 0.016511451 -0.006083166 0.019987546 -0.013035356 0.007821213 -0.007821213 -0.0026070713 -0.012166332 0.00086902373 0.013035356 0.00086902373 0.03997509 0.016511451 0.0026070713 0.00695219
000090 00 fa 12 11 06 17 fd 04 f9 fe 0b fd 08 14 f5 07
       0.0 -0.0052141426 0.015642427 0.014773403 0.0052141426 0.019987546 -0.0026070713 0.003476095 -0.006083166 -0.0017380475 0.009559261 -0.0026070713 0.00695219 0.017380474 -0.009559261 0.006083166
0000a0 f0 09 0a 03 fc 01 ff 15 0a e8 02 fe 31 12 0d fc
       -0.01390438 0.007821213 0.008690237 0.0026070713 -0.003476095 0.00086902373 -0.00086902373 0.018249499 0.008690237 -0.02085657 0.0017380475 -0.0017380475 0.04258216 0.015642427 0.011297309 -0.003476095
0000b0 0b f7 2c 11 16 0f 10 11 0c f5 f9 f6 01 12 f0 f1
       0.009559261 -0.007821213 0.038237043 0.014773403 0.019118521 0.013035356 0.01390438 0.014773403 0.010428285 -0.009559261 -0.006083166 -0.008690237 0.00086902373 0.015642427 -0.01390438 -0.013035356
0000c0 14 0e 12 f8 03 04 0b 12 ff f8 13 eb 1f f6 f8 14
       0.017380474 0.012166332 0.015642427 -0.00695219 0.0026070713 0.003476095 0.009559261 0.015642427 -0.00086902373 -0.00695219 0.016511451 -0.018249499 0.026939735 -0.008690237 -0.00695219 0.017380474
0000d0 f4 09 08 1b f5 04 0b 0b 05 04 0c f4 10 07 11 0a
       -0.010428285 0.007821213 0.00695219 0.02346364 -0.009559261 0.003476095 0.009559261 0.009559261 0.0043451185 0.003476095 0.010428285 -0.010428285 0.01390438 0.006083166 0.014773403 0.008690237
0000e0 09 19 19 fc fc fd fb 07 0f fe 1c ee 19 12 00 18
       0.007821213 0.021725593 0.021725593 -0.003476095 -0.003476095 -0.0026070713 -0.0043451185 0.006083166 0.013035356 -0.0017380475 0.024332665 -0.015642427 0.021725593 0.015642427 0.0 0.02085657
0000f0 18 11 1e f7 0c 07 09 fd 05 0a 0a f7 02 0c 07 03
       0.02085657 0.014773403 0.026070712 -0.007821213 0.010428285 0.006083166 0.007821213 -0.0026070713 0.0043451185 0.008690237 0.008690237 -0.007821213 0.0017380475 0.010428285 0.006083166 0.0026070713

sequential/conv2d_1/Conv2D i1 [32, 3, 3, 16]
000000 1f 64 e3 04 0b 00 c6 3d 35 29 bc 3d 11 50 33 f0
       31 100 -29 4 11 0 -58 61 53 41 -68 61 17 80 51 -16
000010 db 30 b9 49 ed 58 4e 18 d8 cc e3 4b 4b ff b8 e2
       -37 48 -71 73 -19 88 78 24 -40 -52 -29 75 75 -1 -72 -30
000020 47 3a fd 54 20 b6 e6 20 4f da 25 26 2e d4 35 fe
       71 58 -3 84 32 -74 -26 32 79 -38 37 38 46 -44 53 -2
000030 b9 e2 28 30 42 f3 cf 21 77 44 09 e6 23 35 3d b8
       -71 -30 40 48 66 -13 -49 33 119 68 9 -26 35 53 61 -72
000040 b0 e0 f6 c1 f2 36 4b c3 1c ed 0b 07 17 d0 c9 d9
       -80 -32 -10 -63 -14 54 75 -61 28 -19 11 7 23 -48 -55 -39
000050 e8 2e d8 e4 d8 54 23 f5 6e fb 02 c0 d0 fa d8 34
       -24 46 -40 -28 -40 84 35 -11 110 -5 2 -64 -48 -6 -40 52
000060 1d 5a d2 c7 fd 40 e5 40 6c 1a fe db ff 0d fb c5
       29 90 -46 -57 -3 64 -27 64 108 26 -2 -37 -1 13 -5 -59
000070 14 35 c8 08 36 49 b0 e9 7f 55 ef b9 ff f1 c5 17
       20 53 -56 8 54 73 -80 -23 127 85 -17 -71 -1 -15 -59 23
000080 da 1c ce 01 02 0b c0 fe f2 e2 cc c0 19 ed 12 47
       -38 28 -50 1 2 11 -64 -2 -14 -30 -52 -64 25 -19 18 71
000090 e1 dd 09 f5 c8 db 3f 3d 13 fc d4 07 ff 3c bd 7f
       -31 -35 9 -11 -56 -37 63 61 19 -4 -44 7 -1 60 -67 127
0000a0 12 1a f6 29 40 d9 eb bf 8a 36 53 0c cc 0b 39 1f
       18 26 -10 41 64 -39 -21 -65 -118 54 83 12 -52 11 57 31
0000b0 c8 15 1d bd ec 1a b0 ee a4 c9 db 2d 20 5f 1e e7
       -56 21 29 -67 -20 26 -80 -18 -92 -55 -37 45 32 95 30 -25
0000c0 54 43 60 4e ce fe c7 21 0e b2 08 4e f8 c5 5a 4f
       84 67 96 78 -50 -2 -57 33 14 -78 8 78 -8 -59 90 79
0000d0 4f e5 49 fe 3e d9 d4 46 bc ca ee 53 bf d6 e1 ca
       79 -27 73 -2 62 -39 -44 70 -68 -54 -18 83 -65 -42 -31 -54
0000e0 0d f8 fd 0e fa 0f 0c 23 e0 f0 14 40 0e 00 5b 4b
       13 -8 -3 14 -6 15 12 35 -32 -16 20 64 14 0 91 75
0000f0 e5 c9 ec 1c 55 3f e4 3c 93 2a 43 e3 c6 3c cd 16
       -27 -55 -20 28 85 63 -28 60 -109 42 67 -29 -58 60 -51 22

sequential/conv2d/Conv2D i1 [16, 3, 3, 3]
000000 02 01 90 4c b2 28 66 95 f7 e5 28 32 3e 07 1c 97
       2 1 -112 76 -78 40 102 -107 -9 -27 40 50 62 7 28 -105
000010 1c 48 16 41 23 a2 d6 7f e7 68 9f 95 fb 84 a4 0c
       28 72 22 65 35 -94 -42 127 -25 104 -97 -107 -5 -124 -92 12
000020 d5 58 7f 93 77 43 22 20 b1 d1 16 ea 1a bf 10 52
       -43 88 127 -109 119 67 34 32 -79 -47 22 -22 26 -65 16 82
000030 b7 ff 49 10 ff 37 57 9c a8 3f be 3f 43 b8 51 5d
       -73 -1 73 16 -1 55 87 -100 -88 63 -66 63 67 -72 81 93
000040 70 08 30 a5 03 b2 9a 7f 40 ec 32 10 0f 36 64 75
       112 8 48 -91 3 -78 -102 127 64 -20 50 16 15 54 100 117
000050 d0 ab 01 6e 71 66 02 f7 24 7f 39 3e 60 31 67 7b
       -48 -85 1 110 113 102 2 -9 36 127 57 62 96 49 103 123
000060 42 54 42 e0 96 b4 07 38 74 76 ba e0 74 ec a4 01
       66 84 66 -32 -106 -76 7 56 116 118 -70 -32 116 -20 -92 1
000070 e8 8f 45 de ab ab bd 8e 8a e6 60 ae ab 4e ce c3
       -24 -113 69 -34 -85 -85 -67 -114 -118 -26 96 -82 -85 78 -50 -61
000080 52 6f c0 7f 25 f7 e3 e0 00 45 c0 01 d8 18 da 94
       82 111 -64 127 37 -9 -29 -32 0 69 -64 1 -40 24 -38 -108
000090 0a da 7f fa 25 ae 82 1a 5f f1 73 91 4a 2f 9d ad
       10 -38 127 -6 37 -82 -126 26 95 -15 115 -111 74 47 -99 -83
0000a0 9b f3 3f ef df ba 84 b0 bc 0b c6 15 d3 f5 cf 79
       -101 -13 63 -17 -33 -70 -124 -80 -68 11 -58 21 -45 -11 -49 121
0000b0 24 fe 3b a1 81 b5 cc 48 b0 45 19 c0 85 66 42 6b
       36 -2 59 -95 -127 -75 -52 72 -80 69 25 -64 -123 102 66 107
0000c0 b2 df 78 54 db ff dd dd a8 60 fc 7f e1 4e 0d 47
       -78 -33 120 84 -37 -1 -35 -35 -88 96 -4 127 -31 78 13 71
0000d0 3b e6 d2 9e 39 10 67 40 40 31 e3 d6 f6 9c af 39
       59 -26 -46 -98 57 16 103 64 64 49 -29 -42 -10 -100 -81 57
0000e0 d5 93 0e 38 fa b5 8f 41 e7 e0 d9 69 25 49 e3 28
       -43 -109 14 56 -6 -75 -113 65 -25 -32 -39 105 37 73 -29 40
0000f0 e3 7f 5e a4 62 57 67 06 b9 a9 30 cf 6b cf 14 ba
       -29 127 94 -92 98 87 103 6 -71 -87 48 -49 107 -49 20 -70
